eco_model.pth (torch, 4695 bytes, 5 tensors)

weight f4 [20, 7]
0.80317706 0.18400885 0.8284387 -0.523474 0.37007147 -1.2207954 -0.04432708 -0.36683857
0.008300304 -0.55270934 -0.3384115 0.4835497 -0.8990086 0.7407868 -0.44472754 0.11022556
-0.34243393 -0.3595311 0.26752818 0.108056545 -0.626858 0.026013017 -0.05844581 -0.17510694
-0.19162643 0.44985783 -0.59058505 -0.70123684 -0.20747052 0.46197498 0.48200414 -0.017023431
-0.48229972 -1.2059381 0.806366 0.27791822 -0.5658904 -0.7481717 -0.8526009 0.24221921
-0.55564034 -0.35949016 0.1475729 0.51942515 -0.91183734 0.85599554 0.22995251 -0.09385014
0.57996684 0.56944096 0.56311995 0.67363393 -0.4737773 0.3592543 1.3641082 0.67869925
-0.5548993 0.9044898 -0.37278143 -0.36302865 0.9046258 -0.1807721 0.05474922 -0.5280844
0.15251087 0.9299325 -0.06871573 -0.31713235 -0.7078466 -0.077393666 0.6777138 -0.7801387
-0.19497539 0.14483607 0.5921792 1.0278263 -0.39565364 0.28408182 0.12824951 0.054049645
-0.6858418 -0.43334493 0.40052763 0.28503358 -0.34514448 -0.4448247 -0.7243668 0.43671143
-0.08058328 1.3086313 0.8765592 0.017238313 -0.534645 0.15463853 -0.34066764 0.03297308
1.0267246 0.6673697 -0.89004034 0.27288783 -0.9140077 -0.12181193 -0.10357529 0.6265719
-0.18730152 0.23582207 0.82257193 0.80215555 0.1525133 0.10396302 -0.47579256 0.6164001
0.102738164 -0.79334396 0.7638342 0.35534012 0.67451185 -1.0285113 0.009760149 -0.59718156
0.220522 0.8735638 0.20854789 -0.8648602 0.32729712 0.82088566 0.3947804 -0.10900706
-0.31743008 -0.7175558 -0.8050357 -0.88577247 -0.22287494 -0.3730654 0.91291595 -0.7944608
0.54401875 -0.7895627 -0.22428244 0.26130366
00000000: 039d 4d3f d16c 3c3e 8f14 543f 6402 06bf
00000010: 027a bd3e 0643 9cbf 5090 35bd 44d2 bbbe
00000020: 00fe 073c 5c7e 0dbf 4644 adbe d493 f73e
00000030: 6d25 66bf 34a4 3d3f 54b3 e3be f0bd e13d
00000040: 8053 afbe 7614 b8be 74f9 883e c04c dd3d
00000050: c479 20bf 4019 d53c e064 6fbd 3c4f 33be
00000060: b839 44be c453 e63e 9530 17bf 4284 33bf
00000070: 2773 54be fc87 ec3e 3fc9 f63e b974 8bbc
00000080: fdef f6be 2e5c 9abf 016e 4e3f 4c4b 8e3e
00000090: 31de 10bf 2e88 3fbf 0d44 5abf 5008 783e
000000a0: 723e 0ebf 180f b8be 5a1d 173e 0cf9 043f
000000b0: 2c6e 69bf 8622 5b3f ac78 6b3e 8134 c0bd
000000c0: b578 143f e2c6 113f a128 103f 4673 2c3f
000000d0: f092 f2be 2ef0 b73e 199b ae3f 3cbf 2d3f
000000e0: e10d 0ebf a58c 673f 35dd bebe e4de b9be
000000f0: 8e95 673f 521c 39be b840 603d 8a30 07bf
00000100: cf2b 1c3e 0e10 6e3f d5ba 8cbd 2c5f a2be
00000110: 6f35 35bf 9280 9ebd a77e 2d3f 2bb7 47bf
00000120: a1a7 47be e84f 143e 0e99 173f d08f 833f
00000130: 1d93 cabe 2c73 913e d753 033e 2963 5d3d
00000140: 5493 2fbf 63df ddbe f511 cd3e ecef 913e
00000150: c7b6 b0be 10c0 e3be 1a70 39bf a498 df3e
00000160: d908 a5bd 3b81 a73f 2f66 603f 5d37 8d3c
00000170: 7fde 08bf 9059 1e3e fd6b aebe c80e 073d
00000180: b66b 833f bed8 2a3f afd9 63bf f4b7 8b3e
00000190: 69fc 69bf 8878 f9bd 481f d4bd 0467 203f
000001a0: f8cb 3fbe 577b 713e 1394 523f 115a 4d3f
000001b0: 722c 1c3e 90ea d43d 159b f3be 66cc 1d3f
000001c0: 6368 d23d 9718 4bbf a38a 433f 24ef b53e
000001d0: cfac 2c3f 42a6 83bf 08e9 1f3c e4e0 18bf
000001e0: 85d0 613e e1a1 5f3f 948d 553e 7a67 5dbf
000001f0: 7d93 a73e 9025 523f a820 ca3e 183f dfbd
00000200: 3286 a2be bdb1 37bf d216 4ebf fcc1 62bf
00000210: 5439 64be 6e02 bfbe dcb4 693f c861 4bbf
00000220: d044 0b3f c820 4abf 4caa 65be 98c9 853e

bias f4 [20]
0.4809718 0.12510315 -0.17315465 -0.07504192 0.57742214 0.30414668 0.18725075 -0.26649433
-0.24734409 0.7440877 0.2917902 -0.13863046 -0.1246632 -0.12819742 -0.32531798 0.3129059
0.53370893 0.15292346 -0.23555127 -0.23795342
00000000: f041 f63e 0a1b 003e 744f 31be 94af 99bd
00000010: f0d1 133f 1db9 9b3e a9be 3f3e f271 88be
00000020: c547 7dbe 887c 3e3f 8665 953e 25f5 0dbe
00000030: 6b4f ffbd 2f46 03be 1490 a6be 3435 a03e
00000040: 26a1 083f f897 1c3e 5a34 71be 10aa 73be

weight f4 [10, 20]
-0.36923215 0.3219365 0.3067209 0.5351697 -0.11926219 0.04214984 0.46258736 -0.17486429
0.5131506 -0.119445086 -0.4316923 -0.016314328 -0.07065633 -0.28475443 -0.451435 -0.40101194
-0.3288347 0.124289274 0.40592808 -0.03183925 0.04853964 0.37352324 0.030651867 0.50500524
0.2786716 -0.3253935 0.1771341 0.65961456 0.4626828 -0.30793822 0.3550332 0.26103947
0.463952 0.62043834 -0.20400208 0.1856086 0.12792087 0.064632215 -0.12849596 0.03133619
0.32957658 0.41712707 0.5420004 0.38904858 0.4551447 0.11664486 -0.30291706 0.04914856
-0.06873493 0.5604201 -0.5621634 -0.048338972 -0.026047643 0.06230287 0.46140552 -0.0243656
0.19724688 0.042896163 0.45849025 0.34507316 0.9756851 0.10602367 -0.2787405 -0.51468587
0.76224583 -0.28306514 0.29670724 -0.9574861 -0.11631226 0.82578534 0.36415997 0.080048196
-0.6928437 -0.7182577 -0.013805032 0.6278194 1.0781187 -0.026286565 0.062071383 -0.44213158
0.014578975 -0.02144444 -0.45143735 -0.24444228 -0.42114666 -0.17640764 0.11700689 -0.0857886
-0.23757751 0.5310231 0.44331992 -0.095435895 -0.45175055 -0.40558976 -0.3209609 -0.03472675
-0.2427643 -0.41753513 0.2742809 -0.21033973 -0.2097353 -0.2484299 -0.2222645 0.5470183
0.04089117 -0.042727053 -0.0145404935 -0.06952196 0.08130902 0.51670444 -0.2214354 0.12383968
0.388533 0.4692272 -0.20743796 -0.40138298 -0.0058427453 -0.46385938 -0.013440967 -0.13349268
0.7036501 0.29313833 0.081813514 -0.41885373 0.6178326 -0.27612627 -0.4541325 0.12072699
-0.2885483 0.44789624 0.062236108 0.22573031 -0.54968286 0.103992306 0.32389653 -0.22322053
0.71735525 -0.06124875 -0.53172594 0.3623417 0.16817692 0.37265998 -0.14891627 -0.3121555
-0.34698302 -0.1810239 0.10925515 0.3543329 -0.030838042 0.3453515 -0.050786402 0.46293494
-0.24311194 -0.33802578 0.349298 0.062126014 -0.030971332 0.50338 -0.14448518 -0.4641056
0.2981543 -0.18142277 0.1706096 0.099612296 0.105431564 -0.3440559 0.42369556 -0.31687567
-0.23937476 -0.124797866 -0.2860514 0.2628823 -0.4915061 0.08976765 -0.4883031 -0.50937104
0.33062866 0.36883 0.3150909 0.22074217 -0.29000464 -0.3024612 0.42601234 -0.28606525
-0.38471982 0.08630729 0.15020342 0.9586791 -0.1652191 -0.21960583 0.42881855 0.047068622
0.27675173 0.5860544 -0.5217104 0.3926995 -0.75182194 -0.031589765 0.38133097 -0.44307435
00000000: ff0b bdbe dcd4 a43e 860a 9d3e e200 093f
00000010: bc3f f4bd 50a5 2c3d 40d8 ec3e a00f 33be
00000020: d65d 033f a09f f4bd c606 ddbe a0a5 85bc
00000030: 44b4 90bd 55cb 91be 7d22 e7be 7051 cdbe
00000040: 065d a8be 608b fe3d ced5 cf3e e069 02bd
00000050: 80d1 463d 703e bf3e a019 fb3c 0648 013f
00000060: 0bae 8e3e fa99 a6be a462 353e 80dc 283f
00000070: c3e4 ec3e 14aa 9dbe e9c6 b53e f7a6 853e
00000080: 1e8b ed3e 0cd5 1e3f ece5 50be 2e10 3e3e
00000090: b0fd 023e e55d 843d 7294 03be 605a 003d
000000a0: 43be a83e ae91 d53e 8ac0 0a3f 6031 c73e
000000b0: ba08 e93e 80e3 ee3d f217 9bbe 0050 493d
000000c0: e6c4 8cbd b177 0f3f f1e9 0fbf 16ff 45bd
000000d0: de61 d5bc 4b31 7f3d 583d ec3e 5e9a c7bc
000000e0: 16fb 493e e3b3 2f3d 3cbf ea3e 6ead b03e
000000f0: 80c6 793f f022 d93d 13b7 8ebe 74c2 03bf
00000100: 8b22 433f eaed 90be 03ea 973e cf1d 75bf
00000110: 1f35 eebd ab66 533f 2d73 ba3e 4ff0 a33d
00000120: 345e 31bf bddf 37bf 802e 62bc c6b8 203f
00000130: cbff 893f ec56 d7bc 903e 7e3d 125f e2be
00000140: a7dc 6e3c 40ac afbc cc22 e7be 144f 7abe
00000150: 89a0 d7be 34a4 34be 4fa1 ef3d efb1 afbd
00000160: 8547 73be 21f1 073f d4fa e23e e573 c3bd
00000170: d94b e7be 76a9 cfbe fd54 a4be a33d 0ebd
00000180: 3497 78be 2ac7 d5be 8c6e 8c3e 4c63 57be
00000190: dac4 56be 6864 7ebe 4e99 63be 6409 0c3f
000001a0: 807d 273d 9002 2fbd 403b 6ebc 8861 8ebd
000001b0: 5885 a63d be46 043f f6bf 62be a89f fd3d
000001c0: cced c63e 8c3e f03e 9e6a 54be 1282 cdbe
000001d0: 8074 bfbb fa7e edbe 8037 5cbc 4eb2 08be
000001e0: 6a22 343f 3a16 963e d88d a73d ff73 d6be
000001f0: 472a 1e3f 6c60 8dbe 0e84 e8be b63f f73d
00000200: 9abc 93be a852 e53e 4aeb 7e3d d925 673e
00000210: 04b8 0cbf ebf9 d43d c4d5 a53e ec93 64be
00000220: 98a4 373f f8df 7abd 311f 08bf da84 b93e
00000230: 9236 2c3e 4acd be3e 827d 18be d8d2 9fbe
00000240: c2a7 b1be 545e 39be 2ac1 df3d 1f6b b53e
00000250: 10a0 fcbc e9d1 b03e 6705 50bd cf05 ed3e
00000260: 56f2 78be b711 adbe 30d7 b23e d977 7e3d
00000270: 97b7 fdbc 83dd 003f ecf3 13be 409f edbe
00000280: aea7 983e e4c6 39be 48b4 2e3e 8801 cc3d
00000290: 81ec d73d 1828 b0be a0ee d83e 873d a2be
000002a0: a81e 75be 0696 ffbd 5475 92be 8298 863e
000002b0: b0a6 fbbe 1ad8 b73d dd02 fabe 2466 02bf
000002c0: 2948 a93e 49d7 bc3e 9853 a13e 3c0a 623e
000002d0: 7d7b 94be 32dc 9abe 4a1e da3e 2577 92be
000002e0: fff9 c4be e0c1 b03d edce 193e fe6b 753f
000002f0: 322f 29be 5ae0 60be 1b8e db3e 07cb 403d
00000300: 67b2 8d3e a907 163f d08e 05bf e90f c93e
00000310: 6777 40bf 4564 01bd d03d c33e a4da e2be

bias f4 [10]
-0.10750493 0.098122254 0.35887378 0.5588842 -0.017793866 0.059553593 0.19308785 0.13138126
0.11288221 -0.07981495
00000000: 8b2b dcbd 52f4 c83d 4ebe b73e 0913 0f3f
00000010: 71c4 91bc 78ee 733d d2b8 453e cf88 063e
00000020: ca2e e73d 0576 a3bd

weight f4 [1, 10]
0.5600098 0.66809624 -0.6882564 -2.2274265 0.13104375 -0.4712054 -0.89664763 0.09388584
0.25217167 1.2747294
00000000: cd5c 0f3f 5b08 2b3f 9231 30bf 288e 0ec0
00000010: 5530 063e d641 f1be b38a 65bf 3847 c03d
00000020: a51c 813e 552a a33f
